model/model.pth (torch, 16799 bytes, 4 tensors)

linear1.weight f4 [256, 11]
000000 c4 d9 15 3e 43 a9 2a bf a8 e5 f6 bd dc 8f d2 3d
       0.14633852 -0.6666452 -0.12055522 0.10281345
000010 0d ca a6 3e ab 3f 30 be 3a 67 40 bf a1 98 e9 be
       0.32576028 -0.17211787 -0.7515751 -0.4562426
000020 c5 82 3c bf 0c 60 ff 3e 73 24 e5 3c d2 81 9b be
       -0.7363704 0.49877965 0.027971482 -0.30372483
000030 99 64 f9 bd fb c3 99 bd d5 88 3e bf 6f de db bd
       -0.121773906 -0.075080834 -0.7442754 -0.10735785
000040 f2 7c 80 3d c3 f3 04 3f 40 f8 23 3f 7a f3 0e bf
       0.062738314 0.5193445 0.64050674 -0.55840266
000050 12 01 c9 bd aa fd 0e bf b8 6e c2 bd c1 18 41 3d
       -0.09814657 -0.5585581 -0.09493774 0.047142748
000060 22 f3 8a 3f 07 32 92 3e 92 34 c0 3a b2 bc b9 bd
       1.0855448 0.28553793 0.0014664105 -0.09069194
000070 c8 13 bd be 80 04 6e be 5f d2 6c 3e 44 8f 08 be
       -0.36929154 -0.23243904 0.23127125 -0.13335901
000080 5d ce 79 be af 2b 15 3d 09 83 a0 3d 21 c3 5e 3d
       -0.24395128 0.036418613 0.07837493 0.05438531
000090 d1 f5 01 be cc e3 7c 3e 4c 20 4a 3d 2f 0f 3b bf
       -0.12691428 0.24696273 0.049347207 -0.73070043
0000a0 6d d2 9f 3e e3 c9 2d bf 3f 25 5d bf 05 dd 0c bf
       0.3121523 -0.6788618 -0.8638496 -0.5502475
0000b0 9b b5 d8 bc 01 bb c5 3d 61 41 8a bd 78 e8 b0 be
       -0.026453784 0.09654809 -0.06750751 -0.3455236
0000c0 21 7e 59 bd 0c 56 d2 be 26 ff b4 be cf 5f b4 3e
       -0.0530988 -0.41081274 -0.35350913 0.35229346
0000d0 4d 9c f4 3d a8 ca 48 3d 52 97 95 3d 3b 4d 3a bf
       0.119438745 0.049021393 0.07304253 -0.72774094
0000e0 f5 cc 62 bf 63 0a f3 3d d3 9e dd 3e ec d5 1a bf
       -0.8859399 0.118672155 0.43285236 -0.6048267
0000f0 65 be fa bd 15 c6 95 3c 46 18 b7 be 36 7a db 3e
       -0.12243346 0.01828293 -0.35760707 0.42866677
000100 18 87 3e be 6b 3c 65 3a 69 ba 2d bf f7 3a 00 3e
       -0.18606222 0.000874466 -0.67862564 0.12522493
000110 a7 69 5a 3e 79 14 1f be 75 2f 99 3e 60 f8 2c 3e
       0.21329366 -0.15535153 0.2991902 0.16891623
000120 68 39 0d bf 05 e4 14 3e 27 52 c1 3e cf 1e 27 bf
       -0.5516572 0.14540108 0.3775799 -0.65281385
000130 5d aa dd bd ea 0e 35 bf ef d3 80 3e b3 a0 00 3f
       -0.1082351 -0.7072588 0.25161693 0.5024521
000140 02 18 41 bf 90 b1 94 be 8a a3 9c 3e 9f 0b 75 3e
       -0.7542726 -0.2904172 0.3059352 0.23930214
000150 54 ce c5 be 47 40 49 bf 9c 01 af 3d 8c a8 5e 3e
       -0.38633978 -0.78613704 0.08545229 0.21743983
000160 41 c9 41 3f 84 d2 b1 3b c3 01 dd 3d 2d 8c f8 bd
       0.75697714 0.0054267067 0.10791352 -0.121361114
000170 c2 f0 7a 3e b9 e6 a5 be 9c d3 01 bc 4b ff 97 3e
       0.24505904 -0.3240259 -0.007923987 0.2968696
000180 6c 36 95 be a1 15 ba 3e 17 8a 3b 3d 3a e7 8e 3c
       -0.29143083 0.36344627 0.04578599 0.017444242
000190 27 a9 d5 bc a1 3d 42 bd d6 ba 82 be 38 c5 07 bf
       -0.026081635 -0.047422055 -0.2553317 -0.53035307
0001a0 21 91 fe be c0 63 6a 3e e0 4c 96 be c7 de 6e 3e
       -0.497201 0.22889614 -0.29355526 0.2332717
0001b0 e0 ab 93 3e 3c b7 ea be bb 55 0f bf 49 a6 22 3e
       0.28842068 -0.45842922 -0.5599019 0.15883745
0001c0 77 64 7a 3e a6 e8 08 bf a4 f4 88 3e 21 eb ee 3e
       0.24452387 -0.53479993 0.26749146 0.46663764
0001d0 fc d5 c6 3e a3 4f b5 be b5 c9 8e bd a4 b3 13 be
       0.38835132 -0.3541232 -0.06972066 -0.14423996
0001e0 03 7f 3d 3d b1 02 bf be 1b fb d3 3d 13 b5 13 bf
       0.046263706 -0.3730674 0.10350629 -0.5769817
0001f0 d1 c2 6b be 32 5c fc be f7 74 dd 3e e4 47 73 be
       -0.23023535 -0.4928909 0.432533 -0.23757893
000200 17 14 13 bf e3 b9 96 3e 87 4f ec be 01 d1 21 3d
       -0.5745253 0.29438695 -0.46154425 0.039505962
000210 69 f9 b6 3d 6f 19 3a 3d 5d 7f 86 be 3b a8 0e be
       0.0893429 0.04543441 -0.26269045 -0.13931362
000220 63 d0 39 3f 44 42 69 bf 02 95 15 bc 71 5f 3c bf
       0.725836 -0.9111674 -0.0091297645 -0.7358313
000230 29 32 41 3f 34 30 09 be 4f 8a 62 bf d8 ab 1a 3f
       0.75467163 -0.13397294 -0.8849229 0.6041846
000240 e7 dd 12 3d 5b 8f e8 3c c3 37 29 3e cf 1d 10 3f
       0.035856154 0.02838867 0.16525178 0.56295484
000250 57 a0 eb be 39 a6 81 bf 42 03 f6 be a7 1f 2f bf
       -0.46020767 -1.0128852 -0.4804936 -0.6840767
000260 21 c7 9f 3e ad aa 3d 3f f7 54 42 3c f5 55 8f bd
       0.3120661 0.74088556 0.0118610775 -0.06998817
000270 8a 1b a5 3f 84 49 41 3e cf 26 ae be 8d 5c 85 bd
       1.2899029 0.188757 -0.34013984 -0.06511793
000280 c9 20 9e be 6e 19 cb be e8 2e 94 3e 35 f1 99 3e
       -0.30884388 -0.3966784 0.28942037 0.3006684
000290 94 35 4e be dc 77 14 bf c4 15 07 be 66 69 ba 3d
       -0.20137626 -0.5799539 -0.13191897 0.091021344
0002a0 fa 47 29 3f 30 57 8f be 21 1c 58 be fa d7 b6 3d
       0.6612545 -0.27996206 -0.2110448 0.08927913
0002b0 80 65 c5 be 26 cf 06 3f c7 49 69 bf 41 94 7c bf
       -0.38554 0.52659833 -0.911282 -0.9866372
0002c0 d7 ae 57 3e 48 12 12 bd eb 9f 5f 3e f6 b5 a3 bd
       0.2106279 -0.035661966 0.21838348 -0.07993691
0002d0 b4 b5 1b be 97 bd b0 bd b1 dd 24 be 85 f1 8d be
       -0.15206033 -0.086299114 -0.16100194 -0.27723327
0002e0 60 e5 24 be af f9 88 be d9 7a 2c be 04 83 55 3f
       -0.16103125 -0.26752993 -0.16843738 0.8340304
0002f0 c5 89 63 3c f5 dc 10 3b d9 1e 99 3e d4 6c f4 be
       0.013887827 0.0022104357 0.29906347 -0.4773928
000300 0c 32 86 be a9 ae 9d 3d f0 c0 9b be 49 9f e6 3e
       -0.26210058 0.076993294 -0.30420637 0.450434
000310 ca 05 af 3e d9 b8 6a bd c6 07 9a be 2e be 1a bf
       0.34184104 -0.05730519 -0.30084056 -0.6044644
000320 9f 6a ef bd 11 75 b3 3e ee e7 e0 3e 22 5d d4 3e
       -0.11690258 0.35050252 0.43926948 0.41477305
000330 79 b6 b8 3e fd bf 35 be fa 93 97 3d c0 da 5a be
       0.36076716 -0.17749019 0.07401271 -0.21372509
000340 ff c1 12 be 36 c4 7b 3e 04 95 aa 3c 5a 82 8c 3d
       -0.14331816 0.24586567 0.02082301 0.068608
000350 c9 af bc bd 9f f4 c8 be e7 1e 7c be 2e 6e 9f bd
       -0.09213216 -0.3924913 -0.24621163 -0.07784687
000360 96 da d6 bd e2 03 47 3e dc 9f 00 3c 0f 24 82 bc
       -0.10490911 0.19435075 0.007850613 -0.015886335
000370 d1 ef 54 bd 70 e4 d8 3e 45 ba bc 3d 5d f7 f3 be
       -0.05198652 0.42361784 0.092152156 -0.4764966
000380 56 1b b3 be ea 8e 61 be a5 17 8e be 01 14 84 bc
       -0.34981793 -0.22027174 -0.27752414 -0.01612282
000390 ce 9e 06 be 18 f2 90 bc 48 7f 04 be 3d f5 8f 3d
       -0.13146517 -0.017693564 -0.12939179 0.07029197
0003a0 9e 4c 4a bd d7 a0 36 3d 28 89 7c 3e 68 7b 07 bf
       -0.049389474 0.044586983 0.24661696 -0.5292268
0003b0 56 89 9c be 87 52 5d 3e 8f a3 0f bf af b4 20 3f
       -0.3057353 0.21613513 -0.56108946 0.627757
0003c0 dc 8a e4 3e 2f c9 47 be 98 1e 20 3f bf 24 12 be
       0.4463719 -0.19510339 0.6254668 -0.1427183
0003d0 6e 39 bb bc 34 34 2b bd ea 90 01 3f df 50 48 bf
       -0.022854533 -0.04179783 0.50611746 -0.782484
0003e0 9e ac 94 3e de e1 60 be cf 5a 27 bf 8a e1 ff 3e
       0.29037946 -0.21961161 -0.6537294 0.4997676
0003f0 8b 74 0a bf 13 3f 09 3e 1c 04 09 3e ab 56 4a bf
       -0.5408408 0.13402967 0.13380474 -0.79038495

linear1.bias f4 [256]
000000 c8 8e 43 3d 10 14 e0 3c ba 51 cc bb 02 5c 12 bd
       0.04774359 0.027353317 -0.0062353285 -0.035732277
000010 2a 0c 01 bf c5 82 96 be b3 7b 01 bf e7 89 65 3d
       -0.50409186 -0.29396644 -0.50579375 0.056039717
000020 fe 74 c0 be 9b f9 99 be e6 af bd 3d 83 85 df be
       -0.37589258 -0.30073246 0.092620656 -0.4365655
000030 c3 c6 b7 3d fc 00 8f 3d 13 05 41 3d 88 cf d4 be
       0.08973458 0.0698261 0.04712398 -0.41564584
000040 3f 55 8a be 51 cc fb bd e2 51 b7 3f 36 71 23 bf
       -0.27018163 -0.1229483 1.4321864 -0.6384462
000050 c0 cd 98 be c7 d0 eb bd 99 84 57 3e 9f 58 1f be
       -0.29844475 -0.115144305 0.21046676 -0.1556115
000060 82 2c 06 3e d9 54 a6 bd df 8b f6 be ed 63 e2 bd
       0.13102916 -0.08121652 -0.48153588 -0.110542156
000070 e3 2b fb be 30 4c c2 bd b1 d9 ed be 2a ab a8 be
       -0.4905692 -0.09487188 -0.46455148 -0.32943088
000080 5b 26 e4 3e 9a 03 08 bd d9 f3 98 3f dc a1 16 bf
       0.44560513 -0.03320656 1.1949416 -0.5884073
000090 41 ad 51 be 04 ee 34 be 11 ac 0f bf 01 5b a3 be
       -0.20476247 -0.17668921 -0.5612193 -0.31905368
0000a0 4f b4 8c 3f 41 77 af bd 67 5f d9 3e b2 5c 5f 3d
       1.0992526 -0.08567668 0.424556 0.05453176
0000b0 74 9d 1a bf d8 63 d0 be 5e 3e 2f bd 79 40 98 be
       -0.60396504 -0.40701175 -0.042784087 -0.2973669
0000c0 2d 8f ab be 90 08 a6 be d0 78 ee be fd d4 00 bf
       -0.33507672 -0.32428408 -0.46576548 -0.50324994
0000d0 c1 b7 dc bc 95 64 52 be 10 74 cb 3d 5b 72 ba be
       -0.02694309 -0.20546181 0.099342465 -0.3641537
0000e0 7a 44 d4 be 92 07 b8 be 83 42 14 be 10 42 dd be
       -0.41458493 -0.35943276 -0.14478497 -0.43214464
0000f0 9d ec 9c 3d 47 d4 30 3e 57 c7 a7 bd be d4 03 3f
       0.07662318 0.17268477 -0.08192318 0.51496494
000100 35 6c ec be ad 5c 9e be 76 09 01 be d7 06 11 bf
       -0.46176305 -0.3093008 -0.12601265 -0.5665106
000110 1e d3 f8 bd 80 86 25 bf 7d 8e 62 3d 5f ff 12 3e
       -0.121496424 -0.64658356 0.05531167 0.14355229
000120 6d f3 64 be 4e 63 e1 be c0 8c 73 3e 4d ff 0e be
       -0.22358485 -0.44021076 0.2378416 -0.13964577
000130 2d 29 1b 3d 07 56 46 3d c0 2d 12 bf a3 6e d2 be
       0.037881065 0.048421886 -0.5710106 -0.41100034
000140 26 40 a9 bd b4 6b 4a 3f 96 c8 96 be 9b 19 d1 be
       -0.082641885 0.7907059 -0.2944991 -0.40839848
000150 22 33 79 3f 1b 2c 93 be c3 01 51 be 7c 10 30 bf
       0.9734365 -0.28744587 -0.20410828 -0.68775153
000160 12 d3 bf ba 28 b5 39 bf 49 ca 1a bf 6b 04 dd bd
       -0.0014635047 -0.7254205 -0.6046491 -0.10791858
000170 02 ec 9f be 9c c1 e1 bc 29 f6 66 3f d4 87 e6 be
       -0.31234747 -0.02755814 0.9021936 -0.45025504
000180 a9 91 4d be 92 d5 ed 3d 12 f0 f2 bd d8 aa 62 3f
       -0.20075096 0.11613001 -0.11862196 0.88541937
000190 18 35 29 be 4e 81 68 be 9e f7 8a be 9f 7c 06 bf
       -0.1652416 -0.22705576 -0.27142042 -0.52533907
0001a0 ca 09 10 bf bd 7c 9e be cb 49 90 3f 42 eb 06 bf
       -0.56264937 -0.30954543 1.127252 -0.52702725
0001b0 ec 0c 3a bf 35 6b 95 3d ac b1 03 bd bb 15 75 be
       -0.7267597 0.07295839 -0.032151863 -0.23934071
0001c0 3c e4 4c bf d0 c5 c9 be 39 df d4 bd 41 7b 28 bf
       -0.8003576 -0.3940873 -0.10394139 -0.6581307
0001d0 38 e3 3d be 13 a4 ab be 6c ab 1a be 54 2d c8 3d
       -0.18543708 -0.33523616 -0.15104455 0.09774271
0001e0 59 75 6c bd 67 0e cf 3c bd 02 99 bd a6 5e 3a bf
       -0.0577291 0.025275422 -0.074712254 -0.7280067
0001f0 4f 20 ef 3e c8 56 88 be 70 93 e3 be 3f 4a 02 3f
       0.46704337 -0.2662871 -0.44448423 0.5089454
000200 31 14 50 be 65 dc d4 be 41 9b 5a 3e 85 75 0b 3f
       -0.20320202 -0.41574398 0.21348287 0.54476196
000210 9d f6 06 bf 8c 0d bb 3b 5e 67 dc be 5e f2 83 be
       -0.5272005 0.005708402 -0.43047613 -0.2577085
000220 10 49 43 be 5b 70 63 be b6 14 6f be 10 35 ce be
       -0.1907084 -0.22210829 -0.23347744 -0.40274858
000230 e5 c5 bf 3d 6b c7 d1 bd a5 62 86 bd aa 65 05 3e
       0.09363917 -0.10243114 -0.06561784 0.13027063
000240 9d ab 88 be 8b 12 35 3d f1 f7 e2 be e3 18 65 3d
       -0.2669343 0.044207137 -0.4432979 0.055931937
000250 48 39 4d be 3c d5 f4 be a9 8b f0 3d 29 fe f8 3f
       -0.20041382 -0.47818935 0.11745388 1.9452564
000260 77 fe 0d 3d e0 4a 5a bd 61 06 26 be 6c 50 bd be
       0.034666505 -0.053294063 -0.16213371 -0.3697542
000270 2b da a6 3e 7e 8b 9e 3e 14 bf da be 4e 7a 73 bd
       0.32588324 0.309658 -0.42723906 -0.05944281
000280 86 2c 81 be c8 54 e8 be d6 d7 b2 be 2e 37 0c bd
       -0.2522928 -0.45377183 -0.34930295 -0.03423231
000290 b9 a6 11 3e f3 3d e8 3d 5c c9 83 be 7c 5a 45 3e
       0.14223756 0.11339941 -0.25739563 0.19272798
0002a0 7c 5c 24 be 21 6e 19 bf 1e 8d 9f 3e 47 1a ae be
       -0.16050905 -0.5993367 0.3116235 -0.34004423
0002b0 c6 33 04 bf 87 3c b6 be 85 14 04 bc 54 c9 32 bf
       -0.516415 -0.35593054 -0.008061533 -0.6983845
0002c0 b6 9c ea bd 6a 57 b9 be 20 38 9d be a9 ed 36 be
       -0.114556715 -0.36199504 -0.30706882 -0.17864098
0002d0 d3 5d 9d 3e 88 60 e7 3d 64 43 47 be 71 4d cb be
       0.30735645 0.11297709 -0.19459301 -0.3970752
0002e0 6c 3a 9a 3e 11 14 d7 be 15 26 52 3e 2a d3 fa be
       0.30122697 -0.42007497 0.2052234 -0.4898923
0002f0 8e 6c 20 be e4 aa e9 be 4e 3e 0b 3d ea 22 b3 bd
       -0.1566641 -0.45638192 0.033994965 -0.08746894
000300 f1 f5 ac be 5b d7 b7 be 3e 8e 5c be b7 e7 f5 3e
       -0.33781388 -0.3590649 -0.21538636 0.48028347
000310 56 64 91 be 12 e0 ba be 73 34 17 bf 70 c2 0f bd
       -0.28396863 -0.36499077 -0.59064406 -0.03509754
000320 85 52 27 be 54 87 b2 be 8b b0 11 bf d2 91 70 bd
       -0.16340072 -0.34868872 -0.5691001 -0.058732815
000330 0a 6c 01 bd b7 e9 03 3f 2e 92 ce be ce 61 38 be
       -0.031597175 0.51528496 -0.403459 -0.1800606
000340 34 32 8d bd 15 a3 c4 be 8d 8d 66 be 8f c7 3b bc
       -0.06894341 -0.38405672 -0.22514935 -0.011461153
000350 a3 9b cb 3d 0c ad 84 3f a4 0b 0b 3e 2a bb e9 bd
       0.09941795 1.036531 0.1357866 -0.11412652
000360 44 bf 85 be 7a 7f 7e be 31 68 40 bd 1f 58 2c bf
       -0.26122487 -0.24853316 -0.046974365 -0.6732196
000370 67 90 46 3e ad 93 c0 bd dc 4a 9f be e0 88 19 be
       0.19391023 -0.09403167 -0.311118 -0.1499362
000380 6f 69 81 3e b6 16 1b be 99 18 1a bf c8 25 85 be
       0.25275752 -0.15145382 -0.60193783 -0.26005387
000390 88 fd ed be 35 d0 38 be 53 7a 1e be 28 70 72 3e
       -0.46482491 -0.18048175 -0.1547635 0.23675597
0003a0 bf c6 a1 bd 75 17 4b 3e 81 12 e7 be 01 46 0b 3f
       -0.07899236 0.19833167 -0.45131305 0.5440369
0003b0 f1 58 4a 3d 17 91 dd be be 56 69 be 38 6b 1a be
       0.049401227 -0.43274757 -0.22786996 -0.15079963
0003c0 80 c0 bd bb d2 c6 16 bf 47 ff c6 be 4a 31 23 be
       -0.00579077 -0.58897126 -0.38866636 -0.15936771
0003d0 43 3b d0 be 12 f2 09 3f 25 38 96 3d e0 73 91 bd
       -0.40670213 0.53884995 0.073349275 -0.071021795
0003e0 a5 9a 8a 3d 10 c5 5f 3e 52 e0 b1 3f e3 1a 6f bd
       0.06767777 0.21852517 1.3896582 -0.05837525
0003f0 0c 32 df be d1 89 97 be 88 5d e7 3e 40 1c d4 bd
       -0.4359287 -0.29597333 0.45188546 -0.10356951

linear2.weight f4 [3, 256]
000000 87 50 46 3e b3 ba 18 bf 11 15 c3 3d a8 04 97 bc
       0.19366656 -0.5965988 0.095255025 -0.018434837
000010 f0 65 05 bb 21 68 bd be 0f 76 f3 3d 81 44 11 3f
       -0.002035495 -0.36993507 0.11887752 0.56745154
000020 e8 66 81 be eb 0f 15 be 48 0d 60 3e 91 ed ef be
       -0.25273824 -0.14556853 0.21880066 -0.46860936
000030 0e 84 29 3f 4d 5e 1b bf 93 99 6a 3d 1e 13 24 bf
       0.66217124 -0.60690767 0.057275366 -0.6409167
000040 1a 8a 61 bd 34 6f c7 be 08 c9 a9 3e e1 0d 32 bd
       -0.055063345 -0.3895203 0.33161187 -0.043470267
000050 41 86 4a 3c 97 a6 8c be 73 ab 3d bf 07 82 a1 bf
       0.01236111 -0.27470848 -0.74089736 -1.2617806
000060 6a 46 0b 3e c1 c6 76 3e 4b b1 9e 3a 86 6d ac 3b
       0.1360108 0.24099256 0.0012107281 0.0052620796
000070 46 43 bf bc 30 74 69 bf 50 a1 94 bd de bd ec bc
       -0.023347508 -0.91192913 -0.072573304 -0.02889913
000080 38 16 35 3e 82 09 0b bf 8e 5d a1 3e e5 cf f6 3a
       0.17684257 -0.5431138 0.3151669 0.0018830268
000090 86 aa c8 be 01 41 da be 9d fe 16 be 74 ea 6c bf
       -0.391926 -0.4262772 -0.14745565 -0.9254525
0000a0 88 5d cd 3e 8c a9 2e bd 30 3d 35 3f c7 52 95 3e
       0.4011042 -0.04264216 0.7079649 0.29164717
0000b0 e0 3e 43 bc c3 79 24 be b7 3c ff 3e 23 9e 3d be
       -0.011916846 -0.16062073 0.4985101 -0.18517356
0000c0 53 92 0c 3c b2 a0 9d 3d e3 71 d9 bc 36 10 04 bc
       0.008579808 0.07696666 -0.026543563 -0.008060506
0000d0 5d 01 98 3c c4 69 07 bf a5 21 26 3f 1e 39 22 bf
       0.018555338 -0.5289576 0.6489509 -0.63368404
0000e0 24 14 87 3a 6d f6 a2 3b 54 4e 76 bd 0d 77 71 bc
       0.0010305685 0.004973224 -0.060133293 -0.014737857
0000f0 d9 62 08 3f b9 6f 22 3d 71 d5 99 bf 14 d5 11 3f
       0.5327583 0.03965733 -1.2018262 0.56965756
000100 1d 93 28 38 b3 4a 75 bc e2 b0 98 3b 86 11 a3 3d
       4.019133e-05 -0.014971423 0.004659758 0.07962327
000110 df 27 e8 3b 7f e2 af 3d 39 b6 ed 3e 03 db 15 3f
       0.007084831 0.085881226 0.46428087 0.5853731
000120 59 35 b6 3e 0a f1 ba bd 84 95 2e 3f e2 7c 48 bd
       0.35587576 -0.09128006 0.6819689 -0.048947223
000130 f5 9d 1b 3d da eb 06 3f 39 d2 48 bd 94 83 61 3b
       0.037992436 0.5270363 -0.04902861 0.0034410702
000140 ff e4 53 be ca 37 36 3e 8a fa 99 37 0a ce fa 3b
       -0.20692824 0.1779472 1.8355688e-05 0.0076539563
000150 59 dc eb 3e 24 8e 03 3d 32 04 0a bb 04 f2 b1 3e
       0.4606655 0.032117978 -0.002105963 0.34754956
000160 a7 63 79 3c a9 f4 47 bd 84 1f 62 3c 71 e5 9b bf
       0.015221513 -0.04881731 0.013801459 -1.2179395
000170 da 45 1b bd 90 d3 33 bf 49 a5 97 3e 8f 76 4e bc
       -0.037908413 -0.70244694 0.2961829 -0.012601509
000180 93 85 0a 3f 69 3d e5 3d 36 58 8c 3e d7 74 97 3e
       0.5411007 0.11193354 0.2741105 0.2958133
000190 a5 a4 7d 3d 29 36 9d bd 8f c6 20 3c b7 96 06 bc
       0.061924595 -0.07676346 0.009812965 -0.008214644
0001a0 42 2c 08 3d 4d e3 a3 3c af 45 96 3e aa 91 61 bc
       0.033245333 0.020005846 0.2935004 -0.013767639
0001b0 11 f5 16 bd 9e e7 e2 3e c0 22 e4 3e a2 32 30 3d
       -0.036854807 0.44317335 0.44557762 0.043017037
0001c0 50 0e 3f bb 87 e4 6b bc 71 fe 5c bf a8 74 ab be
       -0.0029152818 -0.014397747 -0.86325747 -0.3348744
0001d0 a9 df 2c bf 05 5f 67 bc 9a 49 1f bf d0 6d 51 3f
       -0.6752878 -0.0141217755 -0.6222168 0.81808186
0001e0 30 5a 35 bf de e4 ab 3e c0 63 dd be c7 91 a4 bc
       -0.7084074 0.3357305 -0.43240166 -0.020089043
0001f0 8e b5 42 3e 94 9b 02 3c 57 4d 22 bd 21 e7 4e 3f
       0.1901457 0.007971663 -0.03962454 0.80821425
000200 02 78 78 3d c5 f6 73 3e d2 e8 a8 3d d8 c7 07 3f
       0.060661323 0.23824604 0.08247532 0.5303931
000210 bd 98 c9 3a 7c e6 a0 3e f9 54 58 3c f0 f6 f4 bd
       0.0015380603 0.31425846 0.013203853 -0.11961162
000220 31 e5 9c be 9b 05 64 bf 0b 36 b0 be af 9e 98 bc
       -0.3064361 -0.89071053 -0.34416232 -0.018630354
000230 22 50 84 3f 02 84 bc bf 30 e5 09 bf b5 cf 80 bf
       1.0336955 -1.4727786 -0.5386534 -1.0063387
000240 a3 9e 1e 3d e6 bf ce 3d 82 73 82 bd b1 56 20 bf
       0.038725507 0.100951955 -0.063696876 -0.6263228
000250 44 ed 2d 3d c3 5a 60 3b dd 85 ee 3e 6f 05 e2 3e
       0.042462602 0.0034233786 0.46586505 0.4414477
000260 37 37 19 be da ac a1 3e 06 6a 0c be 9d 9f cd bd
       -0.14962469 0.31577188 -0.1371232 -0.100402094
000270 73 22 a7 3d b4 5e 95 3e e5 9c aa 3a d7 4c 2e be
       0.081608675 0.29173815 0.0013016729 -0.170215
000280 5c 42 39 bc 6f 51 59 bf 22 c3 c4 3d f8 79 8b be
       -0.011307325 -0.8488988 0.09607531 -0.27241492
000290 0e bd 9e 3e 27 c1 54 3e a1 36 02 bf 34 6a 05 3f
       0.31003612 0.20776807 -0.5086461 0.5211518
0002a0 85 70 f7 3d cc 12 bf 3b 8d 93 c6 3e 21 92 88 bd
       0.12082008 0.005831098 0.38784447 -0.06668497
0002b0 40 00 fb 3d 67 e3 d6 bd c6 ee 13 3f d4 c0 24 3a
       0.12255907 -0.10492592 0.57786214 0.0006284837
0002c0 70 c3 cc be e4 c2 5d 3b 41 a2 13 3c 9d f1 6e be
       -0.39992857 0.0033838088 0.009010852 -0.23334356
0002d0 b7 48 2a 3f f8 8f 12 3e ca bc 2a be e0 e8 1e 3e
       0.66517204 0.14312732 -0.1667358 0.15518522
0002e0 51 6e 2b 3e cc 54 3b 3b 5b 53 39 3f 02 05 c0 bd
       0.16741301 0.0028584478 0.72392815 -0.09375955
0002f0 42 49 81 bf 5b 17 f1 bd 55 e3 06 bf 66 fc 9f 3c
       -1.0100482 -0.11772033 -0.5269063 0.019529533
000300 c4 d0 f8 bb 05 48 f2 bb b7 88 05 bc bb 12 3b 3f
       -0.007593246 -0.0073938393 -0.008150271 0.73075455
000310 3b 74 d8 3c 78 d3 a5 3b 6f 5b 1c bc d7 3d 9a 3e
       0.02642261 0.0050606094 -0.009543284 0.30125305
000320 99 e6 77 be 40 06 34 be 24 e2 0e bd fe 33 24 be
       -0.2420906 -0.17580509 -0.034883633 -0.16035458
000330 1d 83 52 bf 0f 21 f5 3e 8c 71 8d 3d 47 2d a0 3a
       -0.82231313 0.47876784 0.06906423 0.0012220525
000340 34 49 0d 3d 4b 88 9e bd c6 f9 c0 3e ee b0 07 3f
       0.03449364 -0.077408396 0.37690562 0.5300435
000350 5d 9e f7 be 9a d3 63 3e da 8d 0c 3e 95 81 d3 bf
       -0.4836301 0.22248688 0.13725987 -1.652392
000360 b9 29 04 bd e5 34 1f bd 8b 03 ef bc be e0 cb be
       -0.032266352 -0.038868804 -0.029176494 -0.39819902
000370 be 13 3c bf e9 ef b0 3c 95 b3 d8 bc ae 49 57 3d
       -0.73467624 0.021598773 -0.026452819 0.0525605
000380 09 6b 3b 3e 6d 63 1a 3d 5e e2 c4 bd 6a 62 14 3d
       0.1830255 0.037692476 -0.096134886 0.036226667
000390 7f 49 5b bb 28 d0 3e be 07 f6 a1 3d 8d dd 34 bf
       -0.0033460555 -0.18634093 0.07908254 -0.7065056
0003a0 7d 76 38 3e 9d 27 44 3e 08 0f 91 bd 1c 61 e0 3e
       0.1801395 0.19155736 -0.07082945 0.4382409
0003b0 c1 ba 22 bf fd 2b f9 be 16 da 0b bd 5d a5 30 bc
       -0.63566214 -0.48666373 -0.03414353 -0.010781613
0003c0 76 c2 70 bd ce 5c f2 bb b4 e9 86 bb 77 08 f1 3d
       -0.058779202 -0.007396317 -0.004117215 0.11769193
0003d0 46 8b ad 3b 59 01 aa 3e e9 61 88 bf b9 22 67 bf
       0.0052961437 0.33204153 -1.065488 -0.9028736
0003e0 82 d3 6a 3d a6 00 2c 3f 53 ed d8 3e 36 2f 2a 3f
       0.057330616 0.6718849 0.42368564 0.6647829
0003f0 df c0 65 be 2d d3 82 3a 46 24 5e 3e bc 53 85 bc
       -0.22436856 0.0009981148 0.21693525 -0.01627528

linear2.bias f4 [3]
000000 b1 c8 03 3f 65 b0 c9 3e 16 a8 8c 3e
       0.51478106 0.3939239 0.2747199
