model/model.pth (torch, 16799 bytes, 4 tensors)

linear1.weight f4 [256, 11]
000000 44 7d bc be bf 87 d1 bd 3a 50 58 be 4c 3b aa bc
       -0.3681432 -0.1023097 -0.21124354 -0.020780228
000010 70 a9 96 3e 3b fe 81 3e d5 6b 2a bf 12 dd ac bd
       0.29426146 0.25389275 -0.6657079 -0.08440603
000020 20 9d 23 be 61 6e 4f be 7a 59 63 bf 9b b8 af 3d
       -0.15977907 -0.2025695 -0.88808405 0.085801326
000030 ba 76 c8 3e 8b 9b 08 3f 65 d8 76 be 6c 2c 03 3d
       0.3915308 0.5336234 -0.24105985 0.032024786
000040 20 ef db 3c c1 fe 75 39 c8 06 1c 3f 33 3f e5 3e
       0.026847422 0.00023459924 0.6094785 0.4477478
000050 1e 8b 06 3f c9 4a 09 3f 86 d7 e7 be 02 72 af bd
       0.52556026 0.5362974 -0.4528162 -0.08566667
000060 33 65 1b be 30 15 d4 bc 17 a5 23 3f 78 6d d9 bc
       -0.15175323 -0.02588901 0.6392378 -0.026541457
000070 83 c8 f5 be 4b 83 16 be 53 0f 23 bf ba 4d 83 3d
       -0.4800454 -0.14698522 -0.6369526 0.064113095
000080 1b 73 d8 3e 71 9e 17 bf 8d 84 61 3f 71 cd f6 3c
       0.42275319 -0.5922614 0.8809288 0.030127259
000090 7d 03 5b be 1c e5 42 3e 60 7b 10 3d 9d 6c 9d 3c
       -0.2138805 0.19032711 0.03527391 0.01921683
0000a0 57 fe c5 be d8 26 f7 3d 26 11 8b 3e 39 25 a4 be
       -0.38670608 0.12067956 0.2716152 -0.3205965
0000b0 d4 fd fc 3d 56 cb 85 be 39 f9 20 3e 21 db 1c 3f
       0.123531014 -0.26131696 0.15720071 0.61271864
0000c0 79 23 d8 be d1 8e 11 bf b2 56 ae 3d 52 ec 80 3e
       -0.42214563 -0.56858546 0.085126296 0.25180298
0000d0 ca 06 47 bf 51 f7 ab be d8 7f 5e bf 36 c7 52 3d
       -0.77744734 -0.33587125 -0.86913824 0.051459514
0000e0 bb 27 08 bd 2b 82 83 bb c0 ed 66 bd 72 14 39 bd
       -0.033241015 -0.00401332 -0.05637908 -0.045185514
0000f0 3a 35 94 bd c0 f7 01 be 3e 22 88 bd e7 35 cb bd
       -0.07236715 -0.12692165 -0.06647156 -0.099223904
000100 2e 4b 0e 3e 76 d9 12 3e c6 59 d8 3e 8a 0d 4e 3c
       0.13895866 0.14340767 0.42255992 0.01257647
000110 95 a8 74 3e dc 7b 2a 3e fe 7e 2f be 50 b1 de 3e
       0.23892434 0.16648811 -0.17138287 0.43494654
000120 65 ee 55 be 42 67 96 bc 07 86 f1 3e 17 20 18 be
       -0.20891722 -0.018359784 0.47172567 -0.14855991
000130 4d 3a 05 3f 96 64 63 3d 4b 55 11 3f 9b 12 83 bf
       0.52042085 0.055515848 0.5677077 -1.0240053
000140 01 f5 cf 3c 77 54 9a 3d ae c3 5f 3e 9d 16 8e 3e
       0.025385382 0.07535642 0.2185199 0.27751628
000150 93 70 eb be 5f eb bc be 51 80 c2 bd 31 ee 2b be
       -0.45984325 -0.36898324 -0.09497131 -0.16790082
000160 72 90 e1 bb 85 bc 9b 3e a7 92 80 3e 83 9d e9 bd
       -0.0068836743 0.30417266 0.25111887 -0.11406996
000170 b9 cb 90 bd 60 4a 7d bd 23 7c 11 be 08 69 33 be
       -0.07070107 -0.061838508 -0.1420751 -0.17520535
000180 1e c8 46 bd e0 75 4f 3c aa 6a 7c 3d 61 db 21 bf
       -0.04853069 0.012662381 0.06162516 -0.6322537
000190 66 22 66 3e 15 0b 04 be 1a 32 08 be 97 f1 f7 be
       0.2247406 -0.12894852 -0.13300362 -0.48426506
0001a0 b7 7f eb be de 29 59 3d 04 5b 27 be f8 bd 70 bd
       -0.45995876 0.053018443 -0.16343313 -0.05877492
0001b0 1e 30 bd 3e 04 16 4a be 97 cb 0f bf 56 f0 67 3d
       0.36950773 -0.19734961 -0.5617003 0.056625687
0001c0 10 80 34 be 64 d0 d3 be 02 70 a8 3e de fe 13 bf
       -0.17626977 -0.41369927 0.32897955 -0.5781077
0001d0 b3 9d 8c 3d 00 7a d2 3e 1f 43 b4 be ba c2 11 bf
       0.06866016 0.41108704 -0.3520746 -0.56937754
0001e0 77 c0 22 be 93 02 02 be 8a a1 bb 3d bc 28 cc bd
       -0.15893732 -0.12696294 0.091616705 -0.09968707
0001f0 d5 6a 7f bd 6e 35 40 be 0f 9e 0a be 3c 1e e7 bd
       -0.062357742 -0.18770382 -0.13536857 -0.112850636
000200 3b b5 24 be 4d 75 4f be 04 ff 44 3e 44 a8 92 3d
       -0.16084759 -0.2025959 0.19237906 0.07161
000210 b1 f7 93 bd 3d fa e9 be 37 66 7f be 52 ab 20 3e
       -0.07224978 -0.4569873 -0.24941336 0.15690354
000220 c8 51 6e 3e 83 19 58 3d 35 83 ba bd 87 7d 84 3e
       0.23273385 0.052758705 -0.09107057 0.2587702
000230 59 2f 87 3e aa 6c 41 bf 56 8a 42 bf a0 f0 a8 3b
       0.2640331 -0.75556433 -0.75992334 0.005155638
000240 0e ee 13 bf 4e de 2b bf 95 df c2 be 72 5c ee be
       -0.5778512 -0.67136085 -0.38061205 -0.46554905
000250 52 47 2e 3f 8f c4 81 bf ef b9 2e bf 63 90 22 bf
       0.68077576 -1.013811 -0.6825246 -0.63501567
000260 9f 18 25 3f 9e 2e 82 bf c5 6b eb bc 5d 42 05 3e
       0.64490694 -1.0170476 -0.028737912 0.13013597
000270 c0 9a 1e 3e 8f 7d 39 be 42 e1 c7 bd 1e cb 1a be
       0.1548872 -0.18114303 -0.097597614 -0.15116546
000280 5f 1f 0d be ed 0a a4 bc 23 ba ba bd 9d 84 5c bb
       -0.13781498 -0.020024741 -0.09117534 -0.003364838
000290 90 ee 98 be 92 84 69 3e 11 51 6f bf df 40 a4 3e
       -0.2986951 0.22804478 -0.9348307 0.32080743
0002a0 7b 3d 4e be b5 85 cb 3e c3 0c 84 3e d9 93 84 be
       -0.2014064 0.39750448 0.25790986 -0.2589405
0002b0 5f 2b 83 3d 9f 5c 2a be 14 1d 17 be 89 b9 f6 3e
       0.06404757 -0.16636895 -0.14757186 0.48188427
0002c0 ba ba f7 be 59 c2 81 3e 50 d6 5a 3d e2 21 a2 be
       -0.4838465 0.25343588 0.05342704 -0.31666476
0002d0 50 27 b0 be 7f 8c 1e 3f b9 6a d9 be 01 2d 17 bf
       -0.34404993 0.6193313 -0.42464235 -0.59053046
0002e0 77 b3 f1 3e 82 2d 45 bf 13 c7 90 bf 74 3a bc be
       0.47207233 -0.77022564 -1.1310753 -0.36763346
0002f0 ff d5 d1 3e 67 2a 9f be 3c bf b6 3e 99 d8 89 3e
       0.4098358 -0.31087038 0.35692775 0.26923063
000300 8c 72 c9 3e 2f d6 0f 3e 66 e2 11 bf db 09 07 bf
       0.39345205 0.14046548 -0.5698608 -0.52749413
000310 b5 51 d5 be 8a 42 c4 be 07 ae b9 bd 19 6e 0a be
       -0.416639 -0.38332015 -0.09066396 -0.13518561
000320 42 03 8c 3d 50 16 06 bd 82 eb 8a bd a6 20 f8 3d
       0.06836559 -0.032736123 -0.06783201 0.12115602
000330 a6 3b b4 be df 84 e9 bd 19 14 ae bd 87 b6 aa 3d
       -0.35201758 -0.11402296 -0.08499927 0.083355956
000340 95 11 af 3e 98 46 94 3e 95 e3 ee 3c d2 7c 08 3d
       0.34193102 0.2896011 0.029161254 0.033322163
000350 28 fd 00 3f 15 fa dd bd a8 31 8a 3d ff 21 bb be
       0.50386286 -0.10838715 0.067477524 -0.36549374
000360 29 6e 88 be d7 2b df 3e 3c 23 9e 3e d3 8b 4c 3f
       -0.26646546 0.43588135 0.30886257 0.79900855
000370 05 fc 40 3e 97 e5 8d 3e 83 c0 70 bf 9a bf 87 3e
       0.18846138 0.27714226 -0.9404375 0.26513368
000380 e9 f4 b2 bd bb 98 8b 3e 22 aa 00 bf 7c 11 8b bd
       -0.08738119 0.27264962 -0.502596 -0.06790444
000390 f9 bc 3a bf b8 a3 b3 3e f4 59 89 be 3a 38 e0 3d
       -0.729446 0.35085845 -0.2682644 0.10948224
0003a0 4b 78 f3 3d 19 44 05 3f 33 69 44 be b6 1f dc 3d
       0.118881784 0.52057034 -0.19180755 0.10748236
0003b0 06 e4 96 3d 98 61 97 3d ae c2 f5 3e 18 e3 8d 3e
       0.07367711 0.073916614 0.4800009 0.2771232
0003c0 e7 12 b6 3e 7e 73 da 3e 41 f5 0c 3e 52 d4 c2 3e
       0.35561296 0.4266624 0.13765432 0.38052613
0003d0 d7 47 30 bf 91 e5 e8 3d b0 17 f0 be bf db 3b 3e
       -0.6885962 0.11371911 -0.46893072 0.18345545
0003e0 6c e6 da bd de 6f db bc a1 d6 da be 98 4e 08 bd
       -0.10688481 -0.02678674 -0.42741874 -0.033278078
0003f0 7c 24 ef 3e 29 06 0b bf 57 23 48 3f de 55 2d 3c
       0.46707523 -0.54306275 0.78178924 0.010579554

linear1.bias f4 [256]
000000 43 0b 12 3f 8f 0c f6 be 82 45 20 3d db 48 30 bd
       0.57048434 -0.48056456 0.039128788 -0.04303823
000010 e0 59 5a 3d 73 ce 42 be f8 91 df be e1 fb ad 3e
       0.053308368 -0.19024067 -0.43666053 0.3398123
000020 63 aa 1c bf 60 c0 20 be bc 11 fd 3b a3 60 80 be
       -0.6119749 -0.15698385 0.0077230614 -0.25073728
000030 f3 74 62 3e c9 80 9a 3e 47 c9 3e be ec 2c b0 be
       0.22114925 0.3017638 -0.18631469 -0.34409273
000040 0b d6 3c be 51 51 3a 3f 2b 13 15 bf 21 9f d4 be
       -0.18441026 0.7278033 -0.58232373 -0.41527656
000050 58 45 eb 3d 2c 85 0e bf b7 de 58 be 0a 1d 00 3e
       0.11487836 -0.55671954 -0.21178709 0.12511078
000060 8d 43 f8 bd 4a 02 92 be 50 6a 1b 3d 50 a0 90 3c
       -0.12122259 -0.2851737 0.037943184 0.017654568
000070 0a c2 36 be 93 0d 90 be af 3d 7f be d8 12 ec be
       -0.17847458 -0.28135356 -0.24925874 -0.46108127
000080 04 58 df bd 75 c7 11 3e af 36 a8 be 4f a2 80 be
       -0.109054595 0.14236243 -0.3285422 -0.25123832
000090 11 6e 55 3e 18 8a da be 68 0c d6 bd 75 67 f3 be
       0.20842768 -0.42683482 -0.10451585 -0.4753987
0000a0 c9 e0 ed be 83 c0 cf be 44 d1 ba be d2 90 6d be
       -0.4646056 -0.40576562 -0.36487782 -0.23199776
0000b0 dc 07 a8 be de b7 73 3e 6a c3 0d bf 89 05 06 3d
       -0.32818496 0.23800609 -0.55376303 0.032720122
0000c0 f2 0d 20 be 2b 5c 63 be 32 6f d8 3d f0 3f c0 3e
       -0.1563032 -0.22203128 0.10568084 0.3754878
0000d0 8d f4 89 3d c1 22 81 3c 3d 99 5b bd 41 47 f5 be
       0.067360975 0.015763642 -0.053612936 -0.47905925
0000e0 96 41 85 be c7 9c a3 be 4e 2c 96 be 08 2f 5d be
       -0.260266 -0.3195555 -0.29330677 -0.21599972
0000f0 b9 a6 b4 bc 55 09 11 bd 7a d6 a5 be ad 85 8b 3e
       -0.022052156 -0.03540929 -0.32390195 0.27250424
000100 1e 48 04 bf 6c ed eb 3e f2 79 ac be 4e 09 55 3e
       -0.5167254 0.46079576 -0.33686787 0.2080433
000110 ff c4 e5 be 30 2b a0 be 05 43 3f be 9a e1 18 bf
       -0.4487686 -0.3128295 -0.1867791 -0.5971924
000120 51 02 2b bd 2c c0 dc 3d 8e ca 8d ba ac 5b b7 be
       -0.041750256 0.107788414 -0.0010817812 -0.35812128
000130 0a a5 79 be 0d f1 00 be 17 02 04 bf a0 88 e8 be
       -0.24379364 -0.12591954 -0.5156569 -0.45416737
000140 fb 7d e6 be ae 37 e6 be 4e 74 62 be 01 91 29 3f
       -0.4501799 -0.44964355 -0.22114679 0.66236883
000150 18 7a e8 be 95 d0 88 be cc cc 1c bf 7d a2 0e be
       -0.4540565 -0.26721635 -0.61249995 -0.13929172
000160 7f 87 dd be b9 b0 30 be 4a 9c 33 be d2 f9 02 bf
       -0.43267438 -0.17254914 -0.17540088 -0.51162446
000170 7f f9 6e be 5d ef 03 bf f5 64 f2 bd a2 2c 8e be
       -0.23337363 -0.51537114 -0.11835662 -0.27768427
000180 93 15 b4 be f7 06 22 be cf ea c5 be e7 14 f6 bd
       -0.3517271 -0.1582297 -0.38655707 -0.120157056
000190 7f 50 f3 3e 9c e3 ca 3f 14 1e d9 be a4 56 86 3e
       0.4752235 1.5850711 -0.4240576 0.26237977
0001a0 4f 53 9e be 6a fb 6f be 07 67 39 be 19 f8 47 be
       -0.30922934 -0.2343575 -0.18105708 -0.19528235
0001b0 cb 83 94 3e 6f d9 cf bb 90 ae d8 be 03 1b dc bd
       0.290068 -0.006343059 -0.4232068 -0.107473396
0001c0 9a 26 7b be 68 66 4c be 76 04 78 be 8f ae 17 bd
       -0.24526444 -0.1996094 -0.24220452 -0.037031706
0001d0 3c a2 93 be dc 0f fc 3e 18 0d c2 be 3b f4 b9 be
       -0.28834713 0.4923085 -0.37900615 -0.36319146
0001e0 36 c2 f9 3d b7 c6 9a be e5 1d 92 be a4 8e aa 3e
       0.12195246 -0.30229732 -0.28538433 0.3331195
0001f0 1f e3 ad be 52 fb 95 be c1 a1 53 3e de ef 12 bd
       -0.33962342 -0.29293305 0.20667173 -0.035873286
000200 67 0c 46 be 00 e1 64 be 98 89 93 be 32 a5 87 be
       -0.19340669 -0.22351456 -0.28815913 -0.26493222
000210 5d 87 a8 be 2c 05 e3 be e2 77 3c 3e 68 8e f3 be
       -0.32915774 -0.44339883 0.18405107 -0.47569585
000220 30 29 97 be 1e 4c 83 be 48 29 9d bd a4 ec 11 be
       -0.2952361 -0.2564401 -0.076738894 -0.14250427
000230 b4 1a c6 be d2 43 1e 3e 4b bc 39 be e4 1c 28 bf
       -0.38692248 0.15455559 -0.18138234 -0.65669084
000240 06 f2 25 3f ca 01 16 be 86 91 a9 be 24 63 87 bd
       0.64822423 -0.1464912 -0.33118838 -0.066107064
000250 3c dc 8c bd 94 02 f8 bd 84 a2 f1 bd 52 df 8f be
       -0.06877944 -0.12109867 -0.117985755 -0.28100067
000260 89 ca fe be 81 a0 db bc 97 f7 d6 3e 61 fc f7 be
       -0.49763897 -0.026809933 0.4198577 -0.48434737
000270 05 70 bd 3e 5b 28 fe 3d e3 da be be 6f 5f 9a be
       0.36999527 0.12410041 -0.37276372 -0.30150935
000280 3a 50 f6 3d 78 9f d4 be b8 70 12 be b3 97 13 bf
       0.12027021 -0.41527915 -0.14300811 -0.5765335
000290 90 0e bf bd c7 f0 9e 3c 90 9f a4 be ca 77 eb 3d
       -0.093289495 0.019401921 -0.32152987 0.11497457
0002a0 89 5b f1 be e2 2a 83 be ab dc 7c be 04 54 57 be
       -0.47140148 -0.25618654 -0.24693553 -0.21028143
0002b0 50 bf 81 be d9 c6 ca be d0 23 10 be 47 31 b4 bd
       -0.25341272 -0.39604834 -0.14076161 -0.087984614
0002c0 17 77 72 be 89 78 f1 be 99 7d 13 3b da d7 4a be
       -0.23678242 -0.47162274 0.0022505282 -0.19808903
0002d0 6c f7 53 3f 49 2b 3b be 12 e3 2f 3e a6 a1 e5 3d
       0.8279941 -0.1827823 0.17176464 0.112124726
0002e0 3b 48 08 bf 5e 1c 1b bf b3 a8 9c 3d 34 c6 f5 be
       -0.53235215 -0.6059016 0.07649364 -0.4800278
0002f0 f8 b0 d9 3d 20 6c 8a bd 71 fe 0e bf b6 a6 32 3d
       0.10629457 -0.067589045 -0.55856997 0.04361602
000300 6e c5 4b be fc 84 80 be f0 a2 87 3e a5 5c c8 be
       -0.19899532 -0.2510146 0.264915 -0.39133182
000310 b6 58 c9 be bc 43 91 be 24 6b 90 bd d5 4b bc bd
       -0.39325494 -0.2837199 -0.070516855 -0.09194151
000320 da f0 1f 3f c7 50 c2 be 1e 59 d5 3e 12 07 55 be
       0.62476885 -0.37952253 0.41669554 -0.20803478
000330 87 ab 95 be 2b 99 e8 be 35 a6 aa 3e e1 db d7 be
       -0.29232427 -0.45429358 0.3332993 -0.42159942
000340 9a ef a3 be 4f 74 8d be 00 04 cd 3e 2d 62 86 be
       -0.3201874 -0.276278 0.40042114 -0.26246777
000350 d3 f0 12 be e5 a3 5f 3e 93 66 87 3e 46 bd a3 be
       -0.1434968 0.21839865 0.26445445 -0.31980342
000360 57 08 6a be da 8d 1f bd a0 08 07 3f 34 fd 0a be
       -0.22854744 -0.03895364 0.52747536 -0.13573152
000370 d0 02 ae bd e1 2d 9a 3d 94 b9 9e bd 8d d8 43 be
       -0.0849663 0.07528282 -0.0775024 -0.19125576
000380 8b a2 0c 3e d3 08 c7 be de d6 89 be 2e 95 09 be
       0.1373388 -0.3887392 -0.26921743 -0.13435814
000390 74 be 78 bd 01 f5 8d be 0e be 0d bf 88 c5 2b be
       -0.060728505 -0.27725986 -0.55368125 -0.16774571
0003a0 47 25 06 bf ae 28 42 be ff 96 8b 3d a6 5e 98 be
       -0.5240063 -0.1896083 0.068159096 -0.2975971
0003b0 8a 22 ed be d5 e5 dd be 94 c0 30 3d 7e 36 85 3e
       -0.46315414 -0.4333941 0.043152407 0.26018137
0003c0 0a fe 2f 3e aa 59 f7 be 45 d9 f2 3c db 57 99 bd
       0.17186752 -0.48310596 0.029644618 -0.0748746
0003d0 59 b9 46 bd 36 d9 bd be 7e f0 bf be b7 c2 7e 3e
       -0.048516605 -0.3707978 -0.37488168 0.24878965
0003e0 64 0d 92 bd a1 a3 a7 3e 7e b9 07 3d 95 f0 09 bf
       -0.0713146 0.32742026 0.033135884 -0.53882724
0003f0 9e 0c 00 3f ba 9c 2e bd 54 2a 98 be 8c 96 db be
       0.5001925 -0.042629935 -0.29719794 -0.42888296

linear2.weight f4 [3, 256]
000000 a2 a3 8e 3e ba 8e 5a be 26 b7 9d be 6c 2e 0a 3e
       0.27859217 -0.21343508 -0.30803794 0.13494271
000010 50 2c ec 3e 46 95 67 bc b3 a7 59 be f2 fc d8 3d
       0.46127558 -0.014134711 -0.21255378 0.105951205
000020 1c ed 63 bc 83 3b 06 3e e6 98 81 be 3c 90 5f bd
       -0.013911512 0.1310864 -0.25311965 -0.054580912
000030 6a 03 ae 3e b6 60 1f 3f 53 54 bb 3b 09 e5 e9 bd
       0.3398698 0.62256944 0.0057168393 -0.11420638
000040 4a 75 15 be 24 fc 56 3e 3b 3f cd 38 65 41 d3 be
       -0.14595523 0.20994622 9.786939e-05 -0.4126083
000050 f0 a0 5a 3e 75 86 eb bd b4 db 4d be 46 28 0c 3f
       0.21350455 -0.11500255 -0.20103341 0.5474895
000060 75 98 0c be 03 c2 50 bb ae 0f 9d bd e2 52 d8 3d
       -0.13730033 -0.0031853921 -0.07669006 0.10562684
000070 6c 8d 90 bb c5 c1 df bc 66 84 a2 be 44 f1 8e be
       -0.00441139 -0.027314076 -0.31741637 -0.27918446
000080 af 55 c7 be 40 a7 74 3c 1c cf 3b bd b5 91 1e 3e
       -0.3893256 0.014932454 -0.04585181 0.1548527
000090 9e c2 54 bc 45 37 94 bc 8d e1 14 be f0 96 24 bc
       -0.0129858535 -0.01809276 -0.14539166 -0.010045752
0000a0 f5 4a b3 be ac db e0 3b 74 09 3a 3d dc c8 1c bf
       -0.35018125 0.0068621244 0.04541917 -0.6124399
0000b0 51 49 05 be 45 b3 1b 3f a6 bf 0d be 0d dc a3 be
       -0.13016249 0.6082042 -0.1384264 -0.32003823
0000c0 8c be c2 be 7d 60 cf bd 99 7a 08 be b5 8b 5a 3e
       -0.38036 -0.101258256 -0.13328017 0.21342357
0000d0 f0 96 a0 3c a2 62 c2 bc 9c b8 80 3e 1b f9 81 be
       0.019603223 -0.023728672 0.25140846 -0.25385365
0000e0 fc 28 e0 3c c4 16 05 bd b3 a1 8f bd 18 10 83 bd
       0.027363293 -0.032492414 -0.070132636 -0.06399554
0000f0 0a 43 e9 bc ac db 83 3e 89 04 aa 3c b7 db d8 3e
       -0.02847435 0.25753534 0.020754116 0.4235513
000100 fb 14 cc 3c da 4c 28 3e 05 b9 38 be f2 b4 fa 3d
       0.024912348 0.16435567 -0.1803933 0.12241544
000110 f3 cc 1f be 7c 57 24 be 0d 9c e1 bc 86 ce 61 bd
       -0.15605526 -0.16048998 -0.027540231 -0.055128597
000120 3e cf b7 bc 17 a8 94 3d 00 3e af bd 5a 0b 08 bd
       -0.022437688 0.07258623 -0.085567474 -0.03321395
000130 d7 70 cc bb 5b a5 ef 3e ff 03 58 bb cc dc d5 bd
       -0.0062390375 0.46805844 -0.0032961366 -0.10442504
000140 3a 26 85 bb da dc e2 bd 2c d1 b7 be 67 c0 6a 3e
       -0.004063395 -0.1107728 -0.35901773 0.22924958
000150 46 98 29 3d d7 ac db bc 08 18 4f bc 76 08 fd bd
       0.041404985 -0.026815815 -0.012640007 -0.123551294
000160 98 54 87 be 4f a9 70 bc 24 ec 2c bd ee 16 87 bd
       -0.26431727 -0.014688804 -0.04221739 -0.0659617
000170 1a 38 ca bd fa 88 7b be 97 9e 3b be 61 4b 6f 3c
       -0.09873982 -0.24563971 -0.18322216 0.014605374
000180 57 cf 04 3d 24 4d 10 bd 4c fe 93 3a 55 bb a1 be
       0.032424297 -0.035229817 0.0011290996 -0.31588235
000190 e6 a9 e7 3e 45 1e ac 3e bb 8d 01 3e 66 38 d7 3e
       0.4524681 0.33616844 0.12651722 0.42035216
0001a0 7f ce 96 bd 81 de 6e bc 3c 7a f2 be 83 a4 03 be
       -0.07363605 -0.014579416 -0.47358882 -0.12855725
0001b0 79 88 5e 3e d9 5f 10 bf c2 5b f3 bd 4b 2e aa 3d
       0.21731748 -0.5639625 -0.11882736 0.08309611
0001c0 6f 23 48 be 63 73 6b bd cb 0c 66 3d 63 7c aa 3c
       -0.19544767 -0.05748309 0.056164544 0.020811265
0001d0 d9 e5 f1 bd 4e d0 e7 3d 72 a2 4d bd 17 b8 51 3c
       -0.11811418 0.11319028 -0.050203748 0.012800238
0001e0 e4 1f 6b 3e f8 96 e4 bc 45 cc 34 3c 6a fb 09 3e
       0.22961384 -0.027904019 0.01103503 0.13474813
0001f0 9a d2 9e bb 23 e0 43 be d1 f4 b3 3e 4d 6d 86 bc
       -0.004846883 -0.1912847 0.35147718 -0.01640954
000200 53 a6 cf bd 24 5a 66 3c 53 a3 85 be bd 9d 41 bb
       -0.10139146 0.014059577 -0.2610117 -0.0029543482
000210 75 7a 1c be 63 b8 97 3c fe 53 07 3e 42 16 89 bc
       -0.15281089 0.01852054 0.13215634 -0.016734246
000220 c8 c0 ee bd 33 e6 65 be 51 a8 88 3b 9c b6 2b be
       -0.11657864 -0.22451095 0.0041704555 -0.16768879
000230 c3 80 77 be b5 cb cf 3e e8 4d 1d 3c 74 be fd bc
       -0.24170212 0.40585104 0.009601094 -0.030974604
000240 5e 53 ad 3e 56 91 9b be 58 de 2c 3c 54 05 f8 be
       0.33852667 -0.3038432 0.010551058 -0.48441565
000250 af 17 1f 3d 0f 0a 0d be 1c e4 6d bd b0 28 32 bd
       0.038840946 -0.13773368 -0.05807887 -0.043495834
000260 ad 4e 15 bd e7 26 19 bf 2b 9f 95 3e 99 53 e8 bb
       -0.036451984 -0.59824985 0.29222998 -0.0070900437
000270 ce 53 10 3f f3 26 7e 3c 3e 94 86 3c 3d e6 39 bf
       0.56377876 0.015512216 0.01642811 -0.7261694
000280 1a bd 7a be 03 90 11 be c9 3f c1 be 1e 06 09 be
       -0.24486199 -0.14215092 -0.37743977 -0.1338124
000290 fd 66 5b 3c 4d e4 f3 bd b5 3f 14 3e 0f 09 a8 3e
       0.013391254 -0.11908779 0.14477427 0.3281941
0002a0 54 56 03 3b 11 90 17 be 0f 2b f5 3c 2d c0 3a bb
       0.002004047 -0.1480105 0.029927758 -0.0028495893
0002b0 5d c7 fe bd 08 19 eb bc c5 76 ad be 9e 57 f1 be
       -0.12440369 -0.02869846 -0.33879676 -0.4713716
0002c0 83 9c c9 3a cf 07 42 be da 3a be bb ee ae 00 bf
       0.0015381727 -0.18948291 -0.0058053555 -0.5026692
0002d0 d9 d9 0e 3f de 6f 6a bc 66 4e 28 3f 65 54 c6 bd
       0.5580116 -0.014308898 0.65744627 -0.09684066
0002e0 bd fd ea bd 57 79 a6 bd 7f b7 82 3b f7 a2 49 bd
       -0.11474178 -0.081286125 0.0039891596 -0.04922768
0002f0 d1 9f 90 bd 0b 58 28 bf 37 02 e2 b9 d5 5e 4f 3d
       -0.070617326 -0.6575934 -0.0004310773 0.05062755
000300 24 3a 39 be c6 21 32 bc df 80 52 39 8c 59 72 3c
       -0.18088585 -0.01087231 0.00020075169 0.014791857
000310 2f 86 07 3c f8 df 18 be 75 19 d1 3c ab a1 d7 bd
       0.008271738 -0.14929187 0.025524834 -0.105288826
000320 c2 4c c6 3e 48 92 34 bd 3b e9 dd 3e 51 25 b2 be
       0.38730437 -0.044084817 0.43342003 -0.34794095
000330 5f 38 1b 3d 4c f0 4e be 5c 9b c3 3e 0e 86 b7 3c
       0.037895557 -0.20208853 0.38204467 0.02240279
000340 c8 d7 0a bd ab 52 ac 3b 0a 90 14 3f 40 25 12 bd
       -0.03389719 0.005258878 0.58032286 -0.035680056
000350 07 79 f4 bc 07 53 bb 3e 79 f6 17 be e5 fc 38 bd
       -0.029842867 0.36586782 -0.14840116 -0.045163054
000360 75 09 a3 3c 27 01 25 bd dc f4 f4 3e 0d 92 90 3d
       0.01990197 -0.040284302 0.47843063 0.07059107
000370 75 a5 8e be 1a 8f d4 3e 44 64 79 3c 25 b8 66 3d
       -0.2786061 0.41515428 0.015221659 0.056327958
000380 9b 1b a5 be 69 c8 8e bc 49 2d 36 bd a9 87 a5 be
       -0.32247624 -0.017429547 -0.04447678 -0.32330063
000390 da f4 55 3e 4c 46 0e bd dd ad 0e 3b 68 12 5d bd
       0.20894185 -0.03473501 0.002177111 -0.05397263
0003a0 db 66 a8 3c 60 b7 c3 bd 16 db 3d bc d8 96 29 bb
       0.020556858 -0.095564604 -0.011587879 -0.0025877263
0003b0 e5 99 c5 be 77 63 5f bc 90 a9 ef bd 77 b5 27 3f
       -0.38593975 -0.013634554 -0.11702263 0.6551127
0003c0 af 91 c9 3e b8 5f 4d be 2c a7 a4 3d b0 2b 00 bf
       0.3936896 -0.20056045 0.08039698 -0.5006666
0003d0 6e 41 eb bd bf b6 bc bb fc 29 cd bd 99 a0 18 3f
       -0.11487089 -0.0057590897 -0.100177735 0.5962005
0003e0 87 6b 4f be 96 ec 13 be 66 fa e9 be e5 12 6a 3d
       -0.20255862 -0.14445719 -0.4569885 0.057146925
0003f0 13 26 dc 3e 18 23 d2 be 10 9d 2d bd 76 eb 26 bd
       0.42997798 -0.410424 -0.042386115 -0.040751897

linear2.bias f4 [3]
000000 47 aa e8 3e c0 6e d7 3c 49 a8 d8 bc
       0.4544241 0.026297927 -0.026447432
