model/model.pth (torch, 16799 bytes, 4 tensors)

linear1.weight f4 [256, 11]
0.87790513 -0.013939558 0.03282599 0.38007236 -0.50358284 0.18832034 -0.112657025 -0.5804889
0.30695906 -0.34172368 0.008602924 0.55580014 -0.35642135 -0.16564532 -0.050266933 -0.58232564
0.2765401 0.4458251 0.09202626 0.4937814 -0.24658263 -0.25204217 -0.23328494 -0.04552883
0.09720188 0.21813571 0.23550117 -0.289702 -0.056188643 -0.109132335 -0.23679581 -0.12729879
-0.27559644 -0.027487103 -0.6860093 0.015546966 0.22116199 -0.19136934 -0.7316811 0.553528
0.27319643 -0.5370452 0.05953004 -0.40792373 0.049780756 -0.51524293 0.29830283 0.20899276
0.17029364 -0.118043244 0.29017732 0.24201292 -0.45808277 -0.06658893 0.27021378 0.11810238
0.047037646 -0.35723996 -0.3555574 0.00829941 -0.30875963 0.00016240166 0.12536904 0.4002752
-0.2156293 0.22383326 0.37277842 -0.13189338 0.40847692 0.08308304 0.32375103 -0.4140917
0.16225024 0.23387091 -0.44720602 0.32408088 -0.16145894 -0.035884954 0.1917135 0.6343385
-0.2601586 0.032497745 -0.5906398 -0.18913965 -0.33414456 -0.16334628 -0.19263527 0.17163512
-0.22795473 -0.7778822 0.10762568 0.013561153 0.046673328 0.1907348 -0.012118201 0.1793501
0.036932886 0.19388326 0.022049157 0.605488 0.020761985 0.01046416 0.12864524 0.39667413
0.14962852 -0.2626481 -0.17263603 -0.38065034 -0.3356095 0.17945053 -0.8694392 0.22998127
0.065992445 0.1342128 0.25341734 0.07930116 0.35679954 0.32159317 0.11534169 -0.047495723
-0.16877823 -0.033730466 -0.12411925 -0.077393055 -0.6685406 0.15053816 0.40333655 -0.6704554
0.43043056 -0.58848935 -0.7755932 -0.26732394 -0.21364285 -0.107391514 -0.10963982 -0.860947
0.35460767 0.41636112 0.53747475 -0.35447702 0.11031992 -0.04178228 -0.16497715 -0.073629305
0.0027156565 0.097114064 -0.6541262 0.43565518 -0.4037568 0.183435 0.27883038 -0.4671203
-0.66143525 0.48031706 -0.39028263 0.53015643 -0.3998935 0.38367155 0.12786005 -0.160103
0.24343708 0.27870253 0.1899979 -0.23460624 0.05787925 -0.33939108 0.20717324 -0.21820755
-0.048125133 -0.2661941 0.082092315 0.1527044 -0.16952151 -0.38243318 0.06544285 0.11978293
0.026998328 -0.15259197 -0.3699788 -0.022864424 0.51092786 0.14149754 -0.10052647 0.23056711
0.14429513 -0.7315653 -0.1577095 -0.528865 -0.0908563 0.16533569 0.29731163 0.3377779
0.4478896 0.42562187 -0.124646634 0.09326832 -0.17676459 0.17812523 0.2856814 0.12069741
0.0024158196 -0.26767075 0.12563767 0.17144169 -0.3197443 0.19216979 -0.33380735 -0.56476325
0.33735466 -0.009302113 -0.008548978 0.6275181 -0.00164267 -0.25062984 0.17884067 -0.003556116
0.22999232 -0.09407885 0.19324024 -0.17313173 -0.12106336 -0.6318777 -0.011346117 0.5356496
-0.39904395 -0.2563204 -0.37229484 -0.32115328 0.59839517 -0.21477023 -0.41689876 0.08720221
0.1029799 0.28117353 -0.071473755 0.05540511 0.15156703 -0.12029945 0.24901612 0.36892536
0.20274225 0.46924567 -0.019517524 0.09849224 0.9164292 0.037406445 0.09600142 0.3145274
-0.0018475833 -0.011979135 0.17988169 0.024941968 0.33325335 0.012517408 0.04073916 0.48214433
00000000: 64be 603f be62 64bc 8c74 063d d898 c23e
00000010: ceea 00bf 0cd7 403e bab8 e6bd ec9a 14bf
00000020: bd29 9d3e 68f6 aebe 47f3 0c3c eb48 0e3f
00000030: dc7c b6be ed9e 29be b3e4 4dbd 4b13 15bf
00000040: aa96 8d3e 3043 e43e 4478 bc3d ead0 fc3e
00000050: 2880 7cbe ac0b 81be 3fe2 6ebe 707c 3abd
00000060: c711 c73d f85e 5f3e 3827 713e d253 94be
00000070: 1026 66bd c680 dfbd 9a7a 72be 9d5a 02be
00000080: fa1a 8dbe a22c e1bc 4e9e 2fbf b4b8 7e3c
00000090: 4a78 623e 53f6 43be 744f 3bbf 03b4 0d3f
000000a0: 67e0 8b3e cb7b 09bf c5d5 733d 61db d0be
000000b0: e8e6 4b3d f6e6 03bf 26bb 983e 3302 563e
000000c0: 7561 2e3e a8c0 f1bd 1f92 943e 3cd2 773e
000000d0: d389 eabe c75f 88bd 7659 8a3e a9df f13d
000000e0: 8caa 403d 28e8 b6be 9f0b b6be 40fa 073c
000000f0: be15 9ebe 5d4a 2a39 be60 003e dff0 cc3e
00000100: edcd 5cbe 8c34 653e d0dc be3e 0f0f 07be
00000110: e323 d13e 7127 aa3d b2c2 a53e d403 d4be
00000120: ed24 263e db7b 6f3e 30f8 e4be eeed a53e
00000130: 7e55 25be 1afc 12bd 8b50 443e 0264 223f
00000140: 8233 85be 5b1c 053d 2c34 17bf d3ad 41be
00000150: ff14 abbe 3f44 27be 2e42 45be 1ec1 2f3e
00000160: f76c 69be 4a23 47bf da6a dc3d 992f 5e3c
00000170: 882c 3f3d fc4f 433e 6b8b 46bc 8da7 373e
00000180: f046 173d 5589 463e 6fa0 b43c 4301 1b3f
00000190: 0a15 aa3c de71 2b3c 94bb 033e df18 cb3e
000001a0: 3838 193e d079 86be 80c7 30be 9ae4 c2be
000001b0: 02d5 abbe e1c1 373e 9193 5ebf 3680 6b3e
000001c0: 0c27 873d 156f 093e ebbf 813e a668 a23d
000001d0: 6eae b63e dca7 a43e 4438 ec3d e08a 42bd
000001e0: 33d4 2cbe f528 0abd 3c32 febd 4080 9ebd
000001f0: 7a25 2bbf ad26 1a3e 2182 ce3e f7a2 2bbf
00000200: 6561 dc3e 3da7 16bf 478d 46bf afde 88be
00000210: 31c5 5abe 15f0 dbbd d88a e0bd 0667 5cbf
00000220: 238f b53e 492d d53e f297 093f 037e b5be
00000230: 69ef e13d e523 2bbd c5ef 28be f6ca 96bd
00000240: 28f9 313b bde3 c63d d174 27bf 320e df3e
00000250: 36b9 cebe 62d6 3b3e dbc2 8e3e 642a efbe
00000260: d253 29bf 1eec f53e 20d3 c7be 55b8 073f
00000270: d7be ccbe 9970 c43e bfed 023e 0af2 23be
00000280: 9247 793e 19b2 8e3e cf8e 423e 9e3c 70be
00000290: cb12 6d3d abc4 adbe 3925 543e cd71 5fbe
000002a0: dc1e 45bd 984a 88be 0420 a83d 8b5e 1c3e
000002b0: 0c97 2dbe 48ce c3be e706 863d c150 f53d
000002c0: 992b dd3c 1241 1cbe dc6d bdbe 2c4e bbbc
000002d0: 2bcc 023f bbe4 103e d2e0 cdbd c919 6c3e
000002e0: 1ac2 133e dd47 3bbf 997e 21be b263 07bf
000002f0: de12 babd c24d 293e 3b39 983e 3af1 ac3e
00000300: c951 e53e 1ceb d93e bc46 ffbd 7603 bf3d
00000310: c701 35be 7666 363e d544 923e 3430 f73d
00000320: ba52 1e3b 240c 89be 29a7 003e 698e 2f3e
00000330: 86b5 a3be 28c8 443e cce8 aabe 5394 10bf
00000340: c0b9 ac3e e467 18bc 0311 0cbc 07a5 203f
00000350: dc4e d7ba 8e52 80be 0222 373e ba0d 69bb
00000360: 1b83 6b3e 69ac c0bd c5e0 453e 7249 31be
00000370: 11f0 f7bd bdc2 21bf 10e5 39bc 5520 093f
00000380: 7d4f ccbe 6d3c 83be 6e9d bebe 346e a4be
00000390: 6d30 193f baec 5bbe c173 d5be 1397 b23d
000003a0: 20e7 d23d faf5 8f3e d560 92bd 78f0 623d
000003b0: 6334 1b3e 8f5f f6bd 15fe 7e3e c9e3 bc3e
000003c0: aa9b 4f3e f840 f03e 37e3 9fbc 4db6 c93d
000003d0: 1b9b 6a3f 8037 193d 649c c43d bc09 a13e
000003e0: 9c2a f2ba 2244 44bc e832 383e 1953 cc3c
000003f0: 2fa0 aa3e d015 4d3c 1bde 263d 9fdb f63e

linear1.bias f4 [256]
0.047528397 -0.13469115 -0.32960007 0.27187225 0.27623674 -0.45251766 -0.21486926 -0.19248863
0.8631084 -0.0853551 0.26203826 0.19609486 0.61633086 0.17104837 0.32358438 -0.21201678
0.585981 0.5382229 -0.08324446 0.12112267 -0.266247 -0.53918296 -0.36476249 -0.19798939
0.88585323 -0.54501516 -0.15212858 0.02413941 -0.30848524 -0.024227232 -0.21093489 -0.25154763
-0.31063786 -0.026232315 -0.29029003 -0.36884046 -0.6368386 -0.23096669 0.14965366 -0.4743097
-0.050999794 -0.10463912 0.09935292 0.5798841 0.11866054 1.804993 0.39343616 -0.43875852
-0.30689666 -0.2929073 0.12647496 -0.56524223 -0.1907827 -0.1980369 -0.10961282 -0.43500876
-0.003259543 -0.22186859 -0.22451517 0.3448027 -0.08469075 0.05106406 0.12791789 -0.080734625
-0.18354477 -0.1302115 0.0010883324 -0.01564607 -0.08246709 0.19401 0.29180533 -0.44640732
0.15827148 -0.49967995 -0.42515662 -0.4976199 -0.15057662 0.26969916 0.13955124 -0.34944695
-0.4350644 -0.26795113 1.0265156 1.4760091 -0.07430237 -0.10473072 -0.48532623 -0.054435752
0.23528193 0.17368081 0.28152758 -0.05965698 -0.17978525 0.31847066 0.2438527 -0.15302457
-0.27788144 -0.2531711 -0.030856356 -0.27721256 -0.061156817 0.5474759 -0.22545773 0.36510462
0.23832577 0.03308184 0.226249 -0.61196816 -0.35618538 -0.26076236 -0.23811805 0.11745533
0.1811657 -0.3709 -0.2045038 -0.4270499 0.518772 -0.31689194 -0.32505324 -0.13080144
-0.06549264 0.0065525677 0.09315967 -0.32537392 -0.24349476 -0.026012821 -0.02281653 -0.15299143
-0.1389201 -0.46245128 -0.5490594 -0.41655788 -0.18497731 -0.20025803 -0.45918867 -0.18312962
-0.24106032 -0.25788763 -0.15024051 -0.17193244 -0.12785533 0.45237485 -0.4283908 -0.11601675
-0.14322664 -0.1361466 -0.2532001 -0.4535369 0.21047647 -0.12768877 -0.19301195 -0.29135337
0.22549705 -0.11361688 -0.09610354 0.09202535 -0.07188344 0.20519795 -0.03155148 -0.18725075
-0.044538904 0.099440955 -0.15126933 -0.11169791 -0.08024152 -0.259471 0.1727983 0.6321563
-0.039537113 0.27147478 0.11859206 -0.04761848 -0.085307315 -0.0038525572 -0.23952994 -0.40360498
-0.09930022 -0.06042998 -0.3491743 0.09550719 -0.18667781 0.3494337 -0.2838326 -0.37724775
0.5458679 -0.3004192 -0.3269023 0.10514059 -0.2648094 0.02538699 0.0028521712 0.4837817
-0.64208114 -0.07907282 -0.2939963 0.16880736 -0.12710774 0.14883451 -0.4383714 -0.13053162
-0.015113199 0.20287119 -0.33007255 0.15158565 -0.23524867 -0.28773057 -0.11153685 -0.02953974
-0.45266873 -0.16025157 -0.4356955 0.116093606 -0.025268512 -0.3423029 0.10234608 0.44511417
0.105716266 0.20594999 -0.17395356 -0.20762719 0.010666789 -0.38630128 -0.09022335 0.899077
-0.073025234 -0.04162028 0.39239222 -0.07485125 -0.23798296 -0.08421226 0.093803145 -0.046371363
0.78458875 -0.32390788 -0.3932694 -0.38011324 0.39406815 -0.071056195 0.04409888 -0.25677022
-0.44914424 -0.105287835 -0.074964955 0.3363791 -0.25820136 -0.2943984 0.06026765 -0.020993672
-0.0059321546 0.69679254 0.42229438 0.62371236 0.6348322 -0.24399048 -0.44279316 -0.23449625
00000000: 23ad 423d 7aec 09be 57c1 a8be d732 8b3e
00000010: e76e 8d3e 65b0 e7be b006 5cbe bd1b 45be
00000020: acf4 5c3f a8ce aebd e129 863e 17cd 483e
00000030: dcc7 1d3f 4e27 2f3e daac a53e ed1a 59be
00000040: da02 163f fac8 093f 127c aabd 2a0f f83d
00000050: 8751 88be e507 0abf 26c2 babe bbbd 4abe
00000060: 47c7 623f 1d86 0bbf 98c7 1bbe 03c0 c53c
00000070: c7f1 9dbe 3078 c6bc 51ff 57be daca 80be
00000080: ed0b 9fbe 27e5 d6bc e5a0 94be a8d8 bcbe
00000090: db07 23bf 8882 6cbe cf3e 193e b9d8 f2be
000000a0: 29e5 50bd 094d d6bd 8b79 cb3d 4973 143f
000000b0: 4c04 f33d 030a e73f 7770 c93e f5a4 e0be
000000c0: 8f21 9dbe f2f7 95be a782 013e b7b3 10bf
000000d0: 8a5c 43be 2fca 4abe b07c e0bd 78b9 debe
000000e0: 0f9e 55bb 8531 63be 4ee7 65be fb89 b03e
000000f0: 5872 adbd 8c28 513d e8fc 023e 3258 a5bd
00000100: 29f3 3bbe 2a56 05be 60a6 8e3a 302c 80bc
00000110: 81e4 a8bd 8faa 463e 8267 953e 808f e4be
00000120: eb11 223e 0dd6 ffbe 21ae d9be 09c8 febe
00000130: c230 1abe 0216 8a3e 85e6 0e3e b6ea b2be
00000140: c3c0 debe e430 89be dd64 833f deed bc3f
00000150: d72b 98bd 0f7d d6bd ae7c f8be 06f8 5ebd
00000160: bfed 703e 62d9 313e 6224 903e e15a 74bd
00000170: a019 38be 960e a33e 86b4 793e 79b2 1cbe
00000180: 7a46 8ebe a49f 81be 78c6 fcbc ceee 8dbe
00000190: 927f 7abd 6127 0c3f 64de 66be feee ba3e
000001a0: ac0b 743e d380 073d d1ad 673e f2a9 1cbf
000001b0: ee5d b6be a582 85be 38d5 73be 6c8c f03d
000001c0: 8083 393e 9be6 bdbe 7269 51be 49a6 dabe
000001d0: 3ece 043f a93f a2be 616d a6be d0f0 05be
000001e0: 0121 86bd ecb6 d63b 7fca be3d 6997 a6be
000001f0: b156 79be d718 d5bc bbe9 babc c9a9 1cbe
00000200: 1241 0ebe 6ac6 ecbe 288f 0cbf 1347 d5be
00000210: b16a 3dbe 7110 4dbe c71a ebbe 5586 3bbe
00000220: 84d8 76be d909 84be a6d8 19be 0f0f 30be
00000230: 82ec 02be ad9d e73e 0a56 dbbe 319a edbd
00000240: 01aa 12be 046a 0bbe 72a3 81be fd35 e8be
00000250: 2587 573e d8c0 02be eda4 45be 452c 95be
00000260: b3e8 663e f7af e8bd efd1 c4bd c977 bc3d
00000270: a037 93bd 691f 523e 203c 01bd a9be 3fbe
00000280: 6d6e 36bd b3a7 cb3d 59e6 1abe e0c1 e4bd
00000290: ab55 a4bd 62d9 84be 0af2 303e ffd4 213f
000002a0: abf1 21bd befe 8a3e 65e0 f23d 980b 43bd
000002b0: 9ab5 aebd 2f7b 7cbb 5647 75be 50a5 cebe
000002c0: ea5d cbbd 6d85 77bd f9c6 b2be 4699 c33d
000002d0: 7828 3fbe f9e8 b23e 8252 91be 9e26 c1be
000002e0: 00be 0b3f 8cd0 99be bd5f a7be f353 d73d
000002f0: 1995 87be 60f8 cf3c 7eeb 3a3b 3cb2 f73e
00000300: 6e5f 24bf eef0 a1bd af86 96be d6db 2c3e
00000310: 8828 02be 1368 183e 3772 e0be 15aa 05be
00000320: 5a9d 77bc 77bd 4f3e 45ff a8be 4539 1b3e
00000330: 07e5 70be 6c51 93be 6f6d e4bd 53fd f1bc
00000340: 32c4 e7be fd18 24be 7b13 dfbe 7cc2 ed3d
00000350: e9ff cebc 5342 afbe d29a d13d 01e6 e33e
00000360: c581 d83d 8ee4 523e e220 32be 399c 54be
00000370: c1c3 2e3c 48c9 c5be 05c7 b8bd e929 663f
00000380: 418e 95bd 077a 2abd a2e7 c83e 9d4b 99bd
00000390: ceb1 73be 7a77 acbd dd1b c03d e6ef 3dbd
000003a0: cfda 483f 41d7 a5be 9b5a c9be 349e c2be
000003b0: 4dc3 c93e e985 91bd 07a1 343d 6377 83be
000003c0: 3cf6 e5be 26a1 d7bd 3a87 99bd e239 ac3e
000003d0: f832 84be 63bb 96be 36db 763d ecfa abbc
000003e0: 8562 c2bb ff60 323f f836 d83e 9dab 1f3f
000003f0: 5d84 223f a4d8 79be c9b5 e2be c91f 70be

linear2.weight f4 [3, 256]
-0.811965 -0.74451876 0.009771521 0.35572726 0.18393688 -0.21332441 -0.24868935 0.030487247
0.19822115 -0.32809985 0.23821627 -0.7985171 0.3434482 0.25537172 0.24973598 0.059722327
0.31799948 0.2757459 -0.22654559 0.075916685 -0.95423704 -0.07032 -0.010654001 0.062659346
0.2521586 -0.15430605 -0.43867 -0.51562357 -0.27649707 -0.32083195 0.060820125 0.059275016
-0.3291187 0.11106909 0.004636936 -0.12768394 -0.0052697486 0.0063028457 0.41513124 -0.02999978
0.14414346 0.21071947 0.5856004 0.37690347 0.26549932 0.49721646 0.1546191 -0.016040644
0.021894688 -0.78052694 -0.46008876 0.0053871027 0.0033047586 -0.0036926875 0.040328056 -0.06432495
0.16346912 -0.6980668 -0.91325 0.14673574 -0.7810301 0.10972011 -0.040332966 -0.6167528
-0.62814945 0.33628687 -0.8389771 0.39258665 -0.42633146 0.3935636 0.35833508 -0.13094603
0.5682567 0.00512806 0.012555345 -0.1981517 -0.20010959 -0.38383406 0.3510984 -0.3738379
-0.6992143 0.088577144 0.29529113 0.60289097 0.35808527 0.07438269 -0.011916357 -0.562654
0.1250463 -0.14591026 0.09962644 -0.50804794 -0.31911418 0.23684497 0.2947284 -0.4364583
-0.07440467 -0.00033825872 -1.2731698 -0.030604428 0.12924339 0.34926078 -0.4469691 0.48077506
0.115954 -0.7257485 0.55744994 -0.117513165 -0.15713848 0.0037041518 0.0022512332 -0.14884298
0.42938 -0.07425424 0.025176236 -0.06099705 0.40865433 -0.025572 -0.033494655 0.07579147
0.08633217 0.25176603 0.124538384 0.0060929894 -0.00468199 0.09984994 -0.12610687 -0.11347415
-0.009489092 -0.06925152 -0.06351099 -0.12605952 -0.06124952 0.35042366 0.0043246807 -0.38676715
-0.36137384 -0.032466512 0.37785962 -0.57065505 -0.4021798 0.045133393 -0.38770625 0.03110512
0.03681689 0.074549176 -0.03817064 -0.02344337 -0.68842936 -0.071233764 -0.0020746666 -0.010641521
-0.6966466 -1.0327075 -0.13375235 0.46086296 -0.15301873 0.59087497 0.048265062 -0.13858932
0.12141642 -0.80235344 0.35290855 -0.8290675 -0.4928676 -0.036315504 0.256234 0.2502212
-0.6842024 0.64622486 0.40760994 0.027402578 0.34011602 0.038794313 -0.5086005 -0.04391193
-0.23871475 -0.7636708 -0.062673114 -0.66647923 -0.17456135 0.16367806 -3.0486576e-06 -0.056255005
0.16270791 0.04615358 -0.23256357 0.018755589 -0.14041136 -0.3875502 -0.8173198 0.32398736
-0.09171626 0.4192393 -0.51819706 0.0109918285 0.048047896 0.5990805 -0.008622727 0.18616651
0.4923513 0.13067503 -0.15603496 -0.76540554 -0.011963291 -0.0778127 -0.06514223 -0.56659424
-0.06749868 -0.22870831 -0.19328888 0.5547025 0.05423533 -0.039744694 0.63046294 0.46629548
-0.42809138 0.13201101 0.009947155 -0.05714588 0.27608308 -0.04007543 0.44591716 0.264529
0.6242683 0.29367995 0.3839542 0.020138115 0.1369922 -0.19544998 -0.2945858 0.10685133
0.2527549 -0.056984637 0.016654635 -0.23900793 0.050703786 0.025513014 0.15346637 -0.54980546
-0.017308524 -0.5337295 -0.37497002 0.47676006 -0.69190943 0.025707357 0.67800534 -0.77599436
-0.6876877 0.2760809 0.27565655 0.38868448 0.5541553 -0.050117522 -0.04526444 -0.05480419
00000000: f0dc 4fbf c898 3ebf bb18 203c e221 b63e
00000010: f359 3c3e b771 5abe 6ca8 7ebe 64c0 f93c
00000020: 7cfa 4a3e b4fc a7be f7ee 733e 9e6b 4cbf
00000030: 71d8 af3e 15c0 823e caba 7f3e 669f 743d
00000040: d4d0 a23e 912e 8d3e 91fb 67be 357a 9b3d
00000050: e148 74bf ef03 90bd 1e8e 2ebc 8b53 803d
00000060: ef1a 813e 6802 1ebe 5b99 e0be e8ff 03bf
00000070: 0691 8dbe 1644 a4be 861e 793d 5cca 723d
00000080: 3f82 a8be 3178 e33d 70f1 973b 94bf 02be
00000090: dbad acbb 1a88 ce3b 158c d43e 19c2 f5bc
000000a0: 589a 133e d8c6 573e e8e9 153f 7ef9 c03e
000000b0: 87ef 873e 2893 fe3e 7854 1e3e ab67 83bc
000000c0: 7d5c b33c 9dd0 47bf c190 ebbe 4b86 b03b
000000d0: a694 583b 0401 72bb 082f 253d cdbc 83bd
000000e0: 7364 273e 81b4 32bf c1ca 69bf e541 163e
000000f0: 97f1 47bf f0b4 e03d 2e34 25bd 83e3 1dbf
00000100: 67ce 20bf cb2d ac3e 34c7 56bf 1e01 c93e
00000110: 1e48 dabe 2b81 c93e b277 b73e b716 06be
00000120: 4579 113f 4909 a83b efb4 4d3c 47e8 4abe
00000130: 87e9 4cbe e685 c4be 2bc3 b33e ae67 bfbe
00000140: b5ff 32bf ef67 b53d 6630 973e 1057 1a3f
00000150: f456 b73e f455 983d d33c 43bc 180a 10bf
00000160: 230c 003e 8069 15be f208 cc3d 6e0f 02bf
00000170: ef62 a3be 7d87 723e a4e6 963e 7677 dfbe
00000180: 7a61 98bd 5158 b1b9 3af7 a2bf 23b6 fabc
00000190: 6158 043e 4fd2 b23e 22d9 e4be 2628 f63e
000001a0: 4a79 ed3d a7ca 39bf 0ab5 0e3f beaa f0bd
000001b0: e9e8 20be 5bc1 723b 6d89 133b 4b6a 18be
000001c0: b2d7 db3e 9b12 98bd 653e ce3c 0bd8 79bd
000001d0: 243b d13e 5f7c d1bc b131 09bd 8f38 9b3d
000001e0: ecce b03d 7ae7 803e fb0d ff3d b3a7 c73b
000001f0: 616b 99bb 207e cc3d 2922 01be 2365 e8bd
00000200: 2378 1bbc bed3 8dbd 0d12 82bd bf15 01be
00000210: c7e0 7abd bb6a b33e 0db6 8d3b 5806 c6be
00000220: fe05 b9be 9bfb 04bd d176 c13e 7316 12bf
00000230: 83ea cdbe cbdd 383d 6f81 c6be 2ad0 fe3c
00000240: 4fcd 163d 3dad 983d d158 1cbd 4f0c c0bc
00000250: e83c 30bf 02e3 91bd 21f7 07bb c659 2ebc
00000260: 6e57 32bf c22f 84bf 60f6 08be 3bf6 eb3e
00000270: f1b0 1cbe 9543 173f 96b1 453d 5cea 0dbe
00000280: 2ca9 f83d 0967 4dbf 6eb0 b43e c53d 54bf
00000290: 2459 fcbe 91bf 14bd 1a31 833e fe1c 803e
000002a0: e327 2fbf fe6e 253f 40b2 d03e 5f7b e03c
000002b0: b023 ae3e c9e6 1e3d a433 02bf ffdc 33bd
000002c0: a471 74be ee7f 43bf c35a 80bd 629e 2abf
000002d0: 36c0 32be 399b 273e 8a97 4cb6 a66b 66bd
000002e0: e79c 263e 890b 3d3d 2525 6ebe 52a5 993c
000002f0: ffc7 0fbe fb6c c6be df3b 51bf ace1 a53e
00000300: bcd5 bbbd 89a6 d63e 90a8 04bf 1217 343c
00000310: dfcd 443d 575d 193f 5746 0dbc 6fa2 3e3e
00000320: 7815 fc3e adcf 053e a1c7 1fbe 9ef1 43bf
00000330: ae01 44bc 445c 9fbd 4a69 85bd 520c 11bf
00000340: bf3c 8abd 8332 6abe 85ed 45be fc00 0e3f
00000350: de25 5e3d 55cb 22bd 0566 213f 48be ee3e
00000360: cb2e dbbe e52d 073e 64f9 223c cc11 6abd
00000370: c35a 8d3e 2226 24bd 414f e43e 5870 873e
00000380: 0cd0 1f3f 385d 963e a595 c43e b0f8 a43c
00000390: af47 0c3e 0a24 48be f3d3 96be dfd4 da3d
000003a0: 1769 813e b968 69bd 4d6f 883c 7fbe 74be
000003b0: c6ae 4f3d ab00 d13c 4a26 1d3e 0dc0 0cbf
000003c0: 9bca 8dbc 7fa2 08bf 12fc bfbe e519 f43e
000003d0: fa20 31bf 3c98 d23c c291 2d3f 91a7 46bf
000003e0: 4d0c 30bf 7a5a 8d3e db22 8d3e a701 c73e
000003f0: 1fdd 0d3f 0848 4dbd 3567 39bd 5c7a 60bd

linear2.bias f4 [3]
0.35141185 0.35045537 0.23190592
00000000: 41ec b33e e36e b33e bf78 6d3e
